__________________________________________________________________________________________________
Layer (type)                    Output Shape         Param #     Connected to                     
==================================================================================================
input_1 (InputLayer)            (None, 128, 128, 1)  0                                            
__________________________________________________________________________________________________
conv2d_1 (Conv2D)               (None, 128, 128, 32) 320         input_1[0][0]                    
__________________________________________________________________________________________________
batch_normalization_1 (BatchNor (None, 128, 128, 32) 128         conv2d_1[0][0]                   
__________________________________________________________________________________________________
elu_1 (ELU)                     (None, 128, 128, 32) 0           batch_normalization_1[0][0]      
__________________________________________________________________________________________________
dropout_1 (Dropout)             (None, 128, 128, 32) 0           elu_1[0][0]                      
__________________________________________________________________________________________________
conv2d_2 (Conv2D)               (None, 128, 128, 32) 9248        dropout_1[0][0]                  
__________________________________________________________________________________________________
batch_normalization_2 (BatchNor (None, 128, 128, 32) 128         conv2d_2[0][0]                   
__________________________________________________________________________________________________
elu_2 (ELU)                     (None, 128, 128, 32) 0           batch_normalization_2[0][0]      
__________________________________________________________________________________________________
max_pooling2d_1 (MaxPooling2D)  (None, 64, 64, 32)   0           elu_2[0][0]                      
__________________________________________________________________________________________________
conv2d_3 (Conv2D)               (None, 64, 64, 64)   18496       max_pooling2d_1[0][0]            
__________________________________________________________________________________________________
batch_normalization_3 (BatchNor (None, 64, 64, 64)   256         conv2d_3[0][0]                   
__________________________________________________________________________________________________
elu_3 (ELU)                     (None, 64, 64, 64)   0           batch_normalization_3[0][0]      
__________________________________________________________________________________________________
dropout_2 (Dropout)             (None, 64, 64, 64)   0           elu_3[0][0]                      
__________________________________________________________________________________________________
conv2d_4 (Conv2D)               (None, 64, 64, 64)   36928       dropout_2[0][0]                  
__________________________________________________________________________________________________
batch_normalization_4 (BatchNor (None, 64, 64, 64)   256         conv2d_4[0][0]                   
__________________________________________________________________________________________________
elu_4 (ELU)                     (None, 64, 64, 64)   0           batch_normalization_4[0][0]      
__________________________________________________________________________________________________
max_pooling2d_2 (MaxPooling2D)  (None, 32, 32, 64)   0           elu_4[0][0]                      
__________________________________________________________________________________________________
conv2d_5 (Conv2D)               (None, 32, 32, 128)  73856       max_pooling2d_2[0][0]            
__________________________________________________________________________________________________
batch_normalization_5 (BatchNor (None, 32, 32, 128)  128         conv2d_5[0][0]                   
__________________________________________________________________________________________________
elu_5 (ELU)                     (Non__________________________________________________________________________________________________
Layer (type)                    Output Shape         Param #     Connected to                     
==================================================================================================
input_1 (InputLayer)            (None, 128, 128, 1)  0                                            
__________________________________________________________________________________________________
conv2d_1 (Conv2D)               (None, 128, 128, 32) 320         input_1[0][0]                    
__________________________________________________________________________________________________
batch_normalization_1 (BatchNor (None, 128, 128, 32) 128         conv2d_1[0][0]                   
__________________________________________________________________________________________________
elu_1 (ELU)                     (None, 128, 128, 32) 0           batch_normalization_1[0][0]      
__________________________________________________________________________________________________
dropout_1 (Dropout)             (None, 128, 128, 32) 0           elu_1[0][0]                      
__________________________________________________________________________________________________
conv2d_2 (Conv2D)               (None, 128, 128, 32) 9248        dropout_1[0][0]                  
__________________________________________________________________________________________________
batch_normalization_2 (BatchNor (None, 128, 128, 32) 128         conv2d_2[0][0]                   
__________________________________________________________________________________________________
elu_2 (ELU)                     (None, 128, 128, 32) 0           batch_normalization_2[0][0]      
__________________________________________________________________________________________________
max_pooling2d_1 (MaxPooling2D)  (None, 64, 64, 32)   0           elu_2[0][0]                      
__________________________________________________________________________________________________
conv2d_3 (Conv2D)               (None, 64, 64, 64)   18496       max_pooling2d_1[0][0]            
__________________________________________________________________________________________________
batch_normalization_3 (BatchNor (None, 64, 64, 64)   256         conv2d_3[0][0]                   
__________________________________________________________________________________________________
elu_3 (ELU)                     (None, 64, 64, 64)   0           batch_normalization_3[0][0]      
__________________________________________________________________________________________________
dropout_2 (Dropout)             (None, 64, 64, 64)   0           elu_3[0][0]                      
__________________________________________________________________________________________________
conv2d_4 (Conv2D)               (None, 64, 64, 64)   36928       dropout_2[0][0]                  
__________________________________________________________________________________________________
batch_normalization_4 (BatchNor (None, 64, 64, 64)   256         conv2d_4[0][0]                   
__________________________________________________________________________________________________
elu_4 (ELU)                     (None, 64, 64, 64)   0           batch_normalization_4[0][0]      
__________________________________________________________________________________________________
max_pooling2d_2 (MaxPooling2D)  (None, 32, 32, 64)   0           elu_4[0][0]                      
__________________________________________________________________________________________________
conv2d_5 (Conv2D)               (None, 32, 32, 128)  73856       max_pooling2d_2[0][0]            
__________________________________________________________________________________________________
batch_normalization_5 (BatchNor (None, 32, 32, 128)  128         conv2d_5[0][0]                   
__________________________________________________________________________________________________
elu_5 (ELU)                     (None, 32, 32, 128)  0           batch_normalization_5[0][0]      
__________________________________________________________________________________________________
dropout_3 (Dropout)             (None, 32, 32, 128)  0           elu_5[0][0]                      
__________________________________________________________________________________________________
conv2d_6 (Conv2D)               (None, 32, 32, 128)  147584      dropout_3[0][0]                  
__________________________________________________________________________________________________
batch_normalization_6 (BatchNor (None, 32, 32, 128)  512         conv2d_6[0][0]                   
__________________________________________________________________________________________________
elu_6 (ELU)                     (None, 32, 32, 128)  0           batch_normalization_6[0][0]      
__________________________________________________________________________________________________
max_pooling2d_3 (MaxPooling2D)  (None, 16, 16, 128)  0           elu_6[0][0]                      
__________________________________________________________________________________________________
conv2d_7 (Conv2D)               (None, 16, 16, 256)  295168      max_pooling2d_3[0][0]            
__________________________________________________________________________________________________
batch_normalization_7 (BatchNor (None, 16, 16, 256)  64          conv2d_7[0][0]                   
__________________________________________________________________________________________________
elu_7 (ELU)                     (None, 16, 16, 256)  0           batch_normalization_7[0][0]      
__________________________________________________________________________________________________
dropout_4 (Dropout)             (None, 16, 16, 256)  0           elu_7[0][0]                      
__________________________________________________________________________________________________
conv2d_8 (Conv2D)               (None, 16, 16, 128)  295040      dropout_4[0][0]                  
__________________________________________________________________________________________________
batch_normalization_8 (BatchNor (None, 16, 16, 128)  512         conv2d_8[0][0]                   
__________________________________________________________________________________________________
elu_8 (ELU)                     (None, 16, 16, 128)  0           batch_normalization_8[0][0]      
__________________________________________________________________________________________________
max_pooling2d_4 (MaxPooling2D)  (None, 8, 8, 128)    0           elu_8[0][0]                      
__________________________________________________________________________________________________
conv2d_9 (Conv2D)               (None, 8, 8, 512)    590336      max_pooling2d_4[0][0]            
__________________________________________________________________________________________________
batch_normalization_9 (BatchNor (None, 8, 8, 512)    32          conv2d_9[0][0]                   
__________________________________________________________________________________________________
elu_9 (ELU)                     (None, 8, 8, 512)    0           batch_normalization_9[0][0]      
__________________________________________________________________________________________________
dropout_5 (Dropout)             (None, 8, 8, 512)    0           elu_9[0][0]                      
__________________________________________________________________________________________________
conv2d_10 (Conv2D)              (None, 8, 8, 512)    2359808     dropout_5[0][0]                  
__________________________________________________________________________________________________
batch_normalization_10 (BatchNo (None, 8, 8, 512)    2048        conv2d_10[0][0]                  
__________________________________________________________________________________________________
elu_10 (ELU)                    (None, 8, 8, 512)    0           batch_normalization_10[0][0]     
________________________________________________________________________e, 32, 32, 128)  0           batch_normalization_5[0][0]      
__________________________________________________________________________________________________
dropout_3 (Dropout)             (None, 32, 32, 128)  0           elu_5[0][0]                      
__________________________________________________________________________________________________
conv2d_6 (Conv2D)               (None, 32, 32, 128)  147584      dropout_3[0][0]                  
__________________________________________________________________________________________________
batch_normalization_6 (BatchNor (None, 32, 32, 128)  512         conv2d_6[0][0]                   
__________________________________________________________________________________________________
elu_6 (ELU)                     (None, 32, 32, 128)  0           batch_normalization_6[0][0]      
__________________________________________________________________________________________________
max_pooling2d_3 (MaxPooling2D)  (None, 16, 16, 128)  0           elu_6[0][0]                      
__________________________________________________________________________________________________
conv2d_7 (Conv2D)               (None, 16, 16, 256)  295168      max_pooling2d_3[0][0]            
__________________________________________________________________________________________________
batch_normalization_7 (BatchNor (None, 16, 16, 256)  64          conv2d_7[0][0]                   
__________________________________________________________________________________________________
elu_7 (ELU)                     (None, 16, 16, 256)  0           batch_normalization_7[0][0]      
__________________________________________________________________________________________________
dropout_4 (Dropout)             (None, 16, 16, 256)  0           elu_7[0][0]                      
__________________________________________________________________________________________________
conv2d_8 (Conv2D)               (None, 16, 16, 128)  295040      dropout_4[0][0]                  
__________________________________________________________________________________________________
batch_normalization_8 (BatchNor (None, 16, 16, 128)  512         conv2d_8[0][0]                   
__________________________________________________________________________________________________
elu_8 (ELU)                     (None, 16, 16, 128)  0           batch_normalization_8[0][0]      
__________________________________________________________________________________________________
max_pooling2d_4 (MaxPooling2D)  (None, 8, 8, 128)    0           elu_8[0][0]                      
__________________________________________________________________________________________________
conv2d_9 (Conv2D)               (None, 8, 8, 512)    590336      max_pooling2d_4[0][0]            
__________________________________________________________________________________________________
batch_normalization_9 (BatchNor (None, 8, 8, 512)    32          conv2d_9[0][0]                   
__________________________________________________________________________________________________
elu_9 (ELU)                     (None, 8, 8, 512)    0           batch_normalization_9[0][0]      
__________________________________________________________________________________________________
dropout_5 (Dropout)             (None, 8, 8, 512)    0           elu_9[0][0]                      
__________________________________________________________________________________________________
conv2d_10 (Conv2D)              (None, 8, 8, 512)    2359808     dropout_5[0][0]                  
__________________________________________________________________________________________________
batch_normalization_10 (BatchNo (None, 8, 8, 512)    2048        conv2d_10[0][0]                  
__________________________________________________________________________________________________
elu_10 (ELU)                    (None, 8, 8, 512)    0           batch_normalization_10[0][0]     
__________________________________________________________________________________________________
up_sampling2d_7 (UpSampling2D)  (None, 16, 16, 512)  0           elu_10[0][0]                     
__________________________________________________________________________________________________
batch_normalization_12 (BatchNo (None, 16, 16, 512)  64          up_sampling2d_7[0][0]            
__________________________________________________________________________________________________
elu_12 (ELU)                    (None, 16, 16, 512)  0           batch_normalization_12[0][0]     
__________________________________________________________________________________________________
up_sampling2d_9 (UpSampling2D)  (None, 32, 32, 512)  0           elu_12[0][0]                     
__________________________________________________________________________________________________
up_sampling2d_6 (UpSampling2D)  (None, 32, 32, 128)  0           max_pooling2d_3[0][0]            
__________________________________________________________________________________________________
concatenate_2 (Concatenate)     (None, 32, 32, 640)  0           up_sampling2d_9[0][0]            
                                                                 up_sampling2d_6[0][0]            
__________________________________________________________________________________________________
conv2d_13 (Conv2D)              (None, 32, 32, 128)  737408      concatenate_2[0][0]              
__________________________________________________________________________________________________
batch_normalization_13 (BatchNo (None, 32, 32, 128)  128         conv2d_13[0][0]                  
__________________________________________________________________________________________________
elu_13 (ELU)                    (None, 32, 32, 128)  0           batch_normalization_13[0][0]     
__________________________________________________________________________________________________
dropout_7 (Dropout)             (None, 32, 32, 128)  0           elu_13[0][0]                     
__________________________________________________________________________________________________
conv2d_14 (Conv2D)              (None, 32, 32, 128)  147584      dropout_7[0][0]                  
__________________________________________________________________________________________________
batch_normalization_14 (BatchNo (None, 32, 32, 128)  128         conv2d_14[0][0]                  
__________________________________________________________________________________________________
elu_14 (ELU)                    (None, 32, 32, 128)  0           batch_normalization_14[0][0]     
__________________________________________________________________________________________________
up_sampling2d_10 (UpSampling2D) (None, 64, 64, 128)  0           elu_14[0][0]                     
__________________________________________________________________________________________________
up_sampling2d_4 (UpSampling2D)  (None, 64, 64, 64)   0           max_pooling2d_2[0][0]            
__________________________________________________________________________________________________
concatenate_3 (Concatenate)     (None, 64, 64, 192)  0           up_sampling2d_10[0][0]           
                                                                 up_sampling2d_4[0][0]            
__________________________________________________________________________________________________
conv2d_15 (Conv2D)              (None, 64, 64, 64)   110656      concatenate_3[0][0]              
__________________________________________________________________________________________________
batch_normalization_15 (BatchNo (None, 64, 64, 64)   256         conv2d_15[0][0]                  
__________________________________________________________________________________________________
elu_15 (ELU)                    (None, 64, 64, 64)   0           batch_normalization_15[0][0]     
__________________________________________________________________________________________________
dropout_8 (Dropout)             (None, 64, 64, 64)   0           elu_15[0][0]                     
___________________________________
up_sampling2d_7 (UpSampling2D)  (None, 16, 16, 512)  0           elu_10[0][0]                     
__________________________________________________________________________________________________
batch_normalization_12 (BatchNo (None, 16, 16, 512)  64          up_sampling2d_7[0][0]            
__________________________________________________________________________________________________
elu_12 (ELU)                    (None, 16, 16, 512)  0           batch_normalization_12[0][0]     
__________________________________________________________________________________________________
up_sampling2d_9 (UpSampling2D)  (None, 32, 32, 512)  0           elu_12[0][0]                     
__________________________________________________________________________________________________
up_sampling2d_6 (UpSampling2D)  (None, 32, 32, 128)  0           max_pooling2d_3[0][0]            
__________________________________________________________________________________________________
concatenate_2 (Concatenate)     (None, 32, 32, 640)  0           up_sampling2d_9[0][0]            
                                                                 up_sampling2d_6[0][0]            
__________________________________________________________________________________________________
conv2d_13 (Conv2D)              (None, 32, 32, 128)  737408      concatenate_2[0][0]              
__________________________________________________________________________________________________
batch_normalization_13 (BatchNo (None, 32, 32, 128)  128         conv2d_13[0][0]                  
__________________________________________________________________________________________________
elu_13 (ELU)                    (None, 32, 32, 128)  0           batch_normalization_13[0][0]     
__________________________________________________________________________________________________
dropout_7 (Dropout)             (None, 32, 32, 128)  0           elu_13[0][0]                     
__________________________________________________________________________________________________
conv2d_14 (Conv2D)              (None, 32, 32, 128)  147584      dropout_7[0][0]                  
__________________________________________________________________________________________________
batch_normalization_14 (BatchNo (None, 32, 32, 128)  128         conv2d_14[0][0]                  
__________________________________________________________________________________________________
elu_14 (ELU)                    (None, 32, 32, 128)  0           batch_normalization_14[0][0]     
__________________________________________________________________________________________________
up_sampling2d_10 (UpSampling2D) (None, 64, 64, 128)  0           elu_14[0][0]                     
__________________________________________________________________________________________________
up_sampling2d_4 (UpSampling2D)  (None, 64, 64, 64)   0           max_pooling2d_2[0][0]            
__________________________________________________________________________________________________
concatenate_3 (Concatenate)     (None, 64, 64, 192)  0           up_sampling2d_10[0][0]           
                                                                 up_sampling2d_4[0][0]            
__________________________________________________________________________________________________
conv2d_15 (Conv2D)              (None, 64, 64, 64)   110656      concatenate_3[0][0]              
__________________________________________________________________________________________________
batch_normalization_15 (BatchNo (None, 64, 64, 64)   256         conv2d_15[0][0]                  
__________________________________________________________________________________________________
elu_15 (ELU)                    (None, 64, 64, 64)   0           batch_normalization_15[0][0]     
__________________________________________________________________________________________________
dropout_8 (Dropout)             (None, 64, 64, 64)   0           elu_15[0][0]                     
__________________________________________________________________________________________________
conv2d_16 (Conv2D)              (None, 64, 64, 64)   36928       dropout_8[0][0]                  
__________________________________________________________________________________________________
batch_normalization_16 (BatchNo (None, 64, 64, 64)   256         conv2d_16[0][0]                  
__________________________________________________________________________________________________
elu_16 (ELU)                    (None, 64, 64, 64)   0           batch_normalization_16[0][0]     
__________________________________________________________________________________________________
_________________________________________________________________________________________
conv2d_16 (Conv2D)              (None, 64, 64, 64)   36928       dropout_8[0][0]                  
__________________________________________________________________________________________________
batch_normalization_16 (BatchNo (None, 64, 64, 64)   256         conv2d_16[0][0]                  
__________________________________________________________________________________________________
elu_16 (ELU)                    (None, 64, 64, 64)   0           batch_normalization_16[0][0]     
__________________________________________________________________________________________________
up_sampling2d_11 (UpSampling2D) (None, 128, 128, 64) 0           elu_16[0][0]                     
__________________________________________________________________________________________________
conv2d_18 (Conv2D)              (None, 128, 128, 32) 18464       up_sampling2d_11[0][0]           
__________________________________________________________________________________________________
batch_normalization_18 (BatchNo (None, 128, 128, 32) 512         conv2d_18[0][0]                  
__________________________________________________________________________________________________
elu_18 (ELU)                    (None, 128, 128, 32) 0           batch_normalization_18[0][0]     
__________________________________________________________________________________________________
conv2d_19 (Conv2D)              (None, 128, 128, 1)  33          elu_18[0][0]                     
==================================================================================================
Total params: 4,883,265
Trainable params: 4,880,561
Non-trainable params: 2,704
__________________________________________________________________________________________________
None
up_sampling2d_11 (UpSampling2D) (None, 128, 128, 64) 0           elu_16[0][0]                     
__________________________________________________________________________________________________
conv2d_18 (Conv2D)              (None, 128, 128, 32) 18464       up_sampling2d_11[0][0]           
__________________________________________________________________________________________________
batch_normalization_18 (BatchNo (None, 128, 128, 32) 512         conv2d_18[0][0]                  
__________________________________________________________________________________________________
elu_18 (ELU)                    (None, 128, 128, 32) 0           batch_normalization_18[0][0]     
__________________________________________________________________________________________________
conv2d_19 (Conv2D)              (None, 128, 128, 1)  33          elu_18[0][0]                     
==================================================================================================
Total params: 4,883,265
Trainable params: 4,880,561
Non-trainable params: 2,704
__________________________________________________________________________________________________
None
__________________________________________________________________________________________________
Layer (type)                    Output Shape         Param #     Connected to                     
==================================================================================================
input_1 (InputLayer)            (None, 128, 128, 1)  0                                            
__________________________________________________________________________________________________
conv2d_1 (Conv2D)               (None, 128, 128, 32) 320         input_1[0][0]                    
__________________________________________________________________________________________________
batch_normalization_1 (BatchNor (None, 128, 128, 32) 128         conv2d_1[0][0]                   
__________________________________________________________________________________________________
elu_1 (ELU)                     (None, 128, 128, 32) 0           batch_normalization_1[0][0]      
__________________________________________________________________________________________________
dropout_1 (Dropout)             (None, 128, 128, 32) 0           elu_1[0][0]                      
__________________________________________________________________________________________________
conv2d_2 (Conv2D)               (None, 128, 128, 32) 9248        dropout_1[0][0]                  
__________________________________________________________________________________________________
batch_normalization_2 (BatchNor (None, 128, 128, 32) 128         conv2d_2[0][0]                   
__________________________________________________________________________________________________
elu_2 (ELU)                     (None, 128, 128, 32) 0           batch_normalization_2[0][0]      
__________________________________________________________________________________________________
max_pooling2d_1 (MaxPooling2D)  (None, 64, 64, 32)   0           elu_2[0][0]                      
__________________________________________________________________________________________________
conv2d_3 (Conv2D)               (None, 64, 64, 64)   18496       max_pooling2d_1[0][0]            
__________________________________________________________________________________________________
batch_normalization_3 (BatchNor (None, 64, 64, 64)   256         conv2d_3[0][0]                   
__________________________________________________________________________________________________
elu_3 (ELU)                     (None, 64, 64, 64)   0           batch_normalization_3[0][0]      
__________________________________________________________________________________________________
dropout_2 (Dropout)             (None, 64, 64, 64)   0           elu_3[0][0]                      
__________________________________________________________________________________________________
conv2d_4 (Conv2D)               (None, 64, 64, 64)   36928       dropout_2[0][0]                  
__________________________________________________________________________________________________
batch_normalization_4 (BatchNor (None, 64, 64, 64)   256         conv2d_4[0][0]                   
__________________________________________________________________________________________________
elu_4 (ELU)                     (None, 64, 64, 64)   0           batch_normalization_4[0][0]      
__________________________________________________________________________________________________
max_pooling2d_2 (MaxPooling2D)  (None, 32, 32, 64)   0           elu_4[0][0]                      
__________________________________________________________________________________________________
conv2d_5 (Conv2D)               (None, 32, 32, 128)  73856       max_pooling2d_2[0][0]            
__________________________________________________________________________________________________
batch_normalization_5 (BatchNor (None, 32, 32, 128)  128         conv2d_5[0][0]                   
__________________________________________________________________________________________________
elu_5 (ELU)                     (None, 32, 32, 128)  0           batch_normalization_5[0][0]      
__________________________________________________________________________________________________
dropout_3 (Dropout)             (None, 32, 32, 128)  0           elu_5[0][0]                      
__________________________________________________________________________________________________
conv2d_6 (Conv2D)               (None, 32, 32, 128)  147584      dropout_3[0][0]                  
__________________________________________________________________________________________________
batch_normalization_6 (BatchNor (None, 32, 32, 128)  512         conv2d_6[0][0]                   
__________________________________________________________________________________________________
elu_6 (ELU)                     (None, 32, 32, 128)  0           batch_normalization_6[0][0]      
__________________________________________________________________________________________________
max_pooling2d_3 (MaxPooling2D)  (None, 16, 16, 128)  0           elu_6[0][0]                      
__________________________________________________________________________________________________
conv2d_7 (Conv2D)               (None, 16, 16, 256)  295168      max_pooling2d_3[0][0]            
__________________________________________________________________________________________________
batch_normalization_7 (BatchNor (None, 16, 16, 256)  64          conv2d_7[0][0]                   
__________________________________________________________________________________________________
elu_7 (ELU)                     (None, 16, 16, 256)  0           batch_normalization_7[0][0]      
__________________________________________________________________________________________________
dropout_4 (Dropout)             (None, 16, 16, 256)  0           elu_7[0][0]                      
__________________________________________________________________________________________________
conv2d_8 (Conv2D)               (None, 16, 16, 128)  295040      dropout_4[0][0]                  
__________________________________________________________________________________________________
batch_normalization_8 (BatchNor (None, 16, 16, 128)  512         conv2d_8[0][0]                   
__________________________________________________________________________________________________
elu_8 (ELU)                     (None, 16, 16, 128)  0           batch_normalization_8[0][0]      
__________________________________________________________________________________________________
max_pooling2d_4 (MaxPooling2D)  (None, 8, 8, 128)    0           elu_8[0][0]                      
__________________________________________________________________________________________________
conv2d_9 (Conv2D)               (None, 8, 8, 512)    590336      max_pooling2d_4[0][0]            
__________________________________________________________________________________________________
batch_normalization_9 (BatchNor (None, 8, 8, 512)    32          conv2d_9[0][0]                   
__________________________________________________________________________________________________
elu_9 (ELU)                     (None, 8, 8, 512)    0           batch_normalization_9[0][0]      
__________________________________________________________________________________________________
dropout_5 (Dropout)             (None, 8, 8, 512)    0           elu_9[0][0]                      
__________________________________________________________________________________________________
conv2d_10 (Conv2D)              (None, 8, 8, 512)    2359808     dropout_5[0][0]                  
__________________________________________________________________________________________________
batch_normalization_10 (BatchNo (None, 8, 8, 512)    2048        conv2d_10[0][0]                  
__________________________________________________________________________________________________
elu_10 (ELU)                    (None, 8, 8, 512)    0           batch_normalization_10[0][0]     
__________________________________________________________________________________________________________________________________________________________________________
Layer (type)                    Output Shape         Param #     Connected to                     
==================================================================================================
input_1 (InputLayer)            (None, 128, 128, 1)  0                                            
__________________________________________________________________________________________________
conv2d_1 (Conv2D)               (None, 128, 128, 32) 320         input_1[0][0]                    
__________________________________________________________________________________________________
batch_normalization_1 (BatchNor (None, 128, 128, 32) 128         conv2d_1[0][0]                   
__________________________________________________________________________________________________
elu_1 (ELU)                     (None, 128, 128, 32) 0           batch_normalization_1[0][0]      
__________________________________________________________________________________________________
dropout_1 (Dropout)             (None, 128, 128, 32) 0           elu_1[0][0]                      
__________________________________________________________________________________________________
conv2d_2 (Conv2D)               (None, 128, 128, 32) 9248        dropout_1[0][0]                  
__________________________________________________________________________________________________
batch_normalization_2 (BatchNor (None, 128, 128, 32) 128         conv2d_2[0][0]                   
__________________________________________________________________________________________________
elu_2 (ELU)                     (None, 128, 128, 32) 0           batch_normalization_2[0][0]      
__________________________________________________________________________________________________
max_pooling2d_1 (MaxPooling2D)  (None, 64, 64, 32)   0           elu_2[0][0]                      
__________________________________________________________________________________________________
conv2d_3 (Conv2D)               (None, 64, 64, 64)   18496       max_pooling2d_1[0][0]            
__________________________________________________________________________________________________
batch_normalization_3 (BatchNor (None, 64, 64, 64)   256         conv2d_3[0][0]                   
__________________________________________________________________________________________________
elu_3 (ELU)                     (None, 64, 64, 64)   0           batch_normalization_3[0][0]      
__________________________________________________________________________________________________
dropout_2 (Dropout)             (None, 64, 64, 64)   0           elu_3[0][0]                      
__________________________________________________________________________________________________
conv2d_4 (Conv2D)               (None, 64, 64, 64)   36928       dropout_2[0][0]                  
__________________________________________________________________________________________________
batch_normalization_4 (BatchNor (None, 64, 64, 64)   256         conv2d_4[0][0]                   
__________________________________________________________________________________________________
elu_4 (ELU)                     (None, 64, 64, 64)   0           batch_normalization_4[0][0]      
__________________________________________________________________________________________________
max_pooling2d_2 (MaxPooling2D)  (None, 32, 32, 64)   0           elu_4[0][0]                      
__________________________________________________________________________________________________
conv2d_5 (Conv2D)               (None, 32, 32, 128)  73856       max_pooling2d_2[0][0]            
__________________________________________________________________________________________________
batch_normalization_5 (BatchNor (None, 32, 32, 128)  128         conv2d_5[0][0]                   
__________________________________________________________________________________________________
elu_5 (ELU)                     (None, 32, 32, 128)  0           batch_normalization_5[0][0]      
__________________________________________________________________________________________________
dropout_3 (Dropout)             (None, 32, 32, 128)  0           elu_5[0][0]                      
__________________________________________________________________________________________________
conv2d_6 (Conv2D)               (None, 32, 32, 128)  147584      dropout_3[0][0]                  
__________________________________________________________________________________________________
batch_normalization_6 (BatchNor (None, 32, 32, 128)  512         conv2d_6[0][0]                   
__________________________________________________________________________________________________
elu_6 (ELU)                     (None, 32, 32, 128)  0           batch_normalization_6[0][0]      
__________________________________________________________________________________________________
max_pooling2d_3 (MaxPooling2D)  (None, 16, 16, 128)  0           elu_6[0][0]                      
__________________________________________________________________________________________________
conv2d_7 (Conv2D)               (None, 16, 16, 256)  295168      max_pooling2d_3[0][0]            
__________________________________________________________________________________________________
batch_normalization_7 (BatchNor (None, 16, 16, 256)  64          conv2d_7[0][0]                   
__________________________________________________________________________________________________
elu_7 (ELU)                     (None, 16, 16, 256)  0           batch_normalization_7[0][0]      
__________________________________________________________________________________________________
dropout_4 (Dropout)             (None, 16, 16, 256)  0           elu_7[0][0]                      
__________________________________________________________________________________________________
conv2d_8 (Conv2D)               (None, 16, 16, 128)  295040      dropout_4[0][0]                  
__________________________________________________________________________________________________
batch_normalization_8 (BatchNor (None, 16, 16, 128)  512         conv2d_8[0][0]                   
__________________________________________________________________________________________________
elu_8 (ELU)                     (None, 16, 16, 128)  0           batch_normalization_8[0][0]      
__________________________________________________________________________________________________
max_pooling2d_4 (MaxPooling2D)  (None, 8, 8, 128)    0           elu_8[0][0]                      
__________________________________________________________________________________________________
conv2d_9 (Conv2D)               (None, 8, 8, 512)    590336      max_pooling2d_4[0][0]            
__________________________________________________________________________________________________
batch_normalization_9 (BatchNor (None, 8, 8, 512)    32          conv2d_9[0][0]                   
__________________________________________________________________________________________________
elu_9 (ELU)                     (None, 8, 8, 512)    0           batch_normalization_9[0][0]      
__________________________________________________________________________________________________
dropout_5 (Dropout)             (None, 8, 8, 512)    0           elu_9[0][0]                      
__________________________________________________________________________________________________
conv2d_10 (Conv2D)              (None, 8, 8, 512)    2359808     dropout_5[0][0]                  
__________________________________________________________________________________________________
__________________________
up_sampling2d_7 (UpSampling2D)  (None, 16, 16, 512)  0           elu_10[0][0]                     
__________________________________________________________________________________________________
batch_normalization_12 (BatchNo (None, 16, 16, 512)  64          up_sampling2d_7[0][0]            
__________________________________________________________________________________________________
elu_12 (ELU)                    (None, 16, 16, 512)  0           batch_normalization_12[0][0]     
__________________________________________________________________________________________________
up_sampling2d_9 (UpSampling2D)  (None, 32, 32, 512)  0           elu_12[0][0]                     
__________________________________________________________________________________________________
up_sampling2d_6 (UpSampling2D)  (None, 32, 32, 128)  0           max_pooling2d_3[0][0]            
__________________________________________________________________________________________________
concatenate_2 (Concatenate)     (None, 32, 32, 640)  0           up_sampling2d_9[0][0]            
                                                                 up_sampling2d_6[0][0]            
__________________________________________________________________________________________________
conv2d_13 (Conv2D)              (None, 32, 32, 128)  737408      concatenate_2[0][0]              
__________________________________________________________________________________________________
batch_normalization_13 (BatchNo (None, 32, 32, 128)  128         conv2d_13[0][0]                  
__________________________________________________________________________________________________
elu_13 (ELU)                    (None, 32, 32, 128)  0           batch_normalization_13[0][0]     
__________________________________________________________________________________________________
dropout_7 (Dropout)             (None, 32, 32, 128)  0           elu_13[0][0]                     
__________________________________________________________________________________________________
conv2d_14 (Conv2D)              (None, 32, 32, 128)  147584      dropout_7[0][0]                  
__________________________________________________________________________________________________
batch_normalization_14 (BatchNo (None, 32, 32, 128)  128         conv2d_14[0][0]                  
__________________________________________________________________________________________________
elu_14 (ELU)                    (None, 32, 32, 128)  0           batch_normalization_14[0][0]     
__________________________________________________________________________________________________
up_sampling2d_10 (UpSampling2D) (None, 64, 64, 128)  0           elu_14[0][0]                     
__________________________________________________________________________________________________
up_sampling2d_4 (UpSampling2D)  (None, 64, 64, 64)   0           max_pooling2d_2[0][0]            
__________________________________________________________________________________________________
concatenate_3 (Concatenate)     (None, 64, 64, 192)  0           up_sampling2d_10[0][0]           
                                                                 up_sampling2d_4[0][0]            
__________________________________________________________________________________________________
conv2d_15 (Conv2D)              (None, 64, 64, 64)   110656      concatenate_3[0][0]              
__________________________________________________________________________________________________
batch_normalization_15 (BatchNo (None, 64, 64, 64)   256         conv2d_15[0][0]                  
__________________________________________________________________________________________________
elu_15 (ELU)                    (None, 64, 64, 64)   0           batch_normalization_15[0][0]     
__________________________________________________________________________________________________
dropout_8 (Dropout)             (None, 64, 64, 64)   0           elu_15[0][0]                     
__________________________________________________________________________________________________
conv2d_16 (Conv2D)              (None, 64, 64, 64)   36928       dropout_8[0][0]                  
__________________________________________________________________________________________________
batch_normalization_16 (BatchNo (None, 64, 64, 64)   256         conv2d_16[0][0]                  
__________________________________________________________________________________________________
elu_16 (ELU)                    (None, 64, 64, 64)   0           batch_normalization_16[0][0]     
__________________________________________________________________________________________________
up_sampling2d_11 (UpSampling2D) (None, 128, 128, 64) 0           elu_16[0][0]                     
__________________________________________________________________________________________________
conv2d_18 (Conv2D)              (None, 128, 128, 32) 18464       up_sampling2d_11[0][0]           
__________________________________________________________________________________________________
batch_normalization_18 (BatchNo (None, 128, 128, 32) 512         conv2d_18[0][0]                  
__________________________________________________________________________________________________
elu_18 (ELU)                    (None, 128, 128, 32) 0           batch_normalization_18[0][0]     
__________________________________________________________________________________________________
conv2d_19 (Conv2D)              (None, 128, 128, 1)  33          elu_18[0][0]                     
==================================================================================================
Total params: 4,883,265
Trainable params: 4,880,561
Non-trainable params: 2,704
__________________________________________________________________________________________________
None
batch_normalization_10 (BatchNo (None, 8, 8, 512)    2048        conv2d_10[0][0]                  
__________________________________________________________________________________________________
elu_10 (ELU)                    (None, 8, 8, 512)    0           batch_normalization_10[0][0]     
__________________________________________________________________________________________________
up_sampling2d_7 (UpSampling2D)  (None, 16, 16, 512)  0           elu_10[0][0]                     
__________________________________________________________________________________________________
batch_normalization_12 (BatchNo (None, 16, 16, 512)  64          up_sampling2d_7[0][0]            
__________________________________________________________________________________________________
elu_12 (ELU)                    (None, 16, 16, 512)  0           batch_normalization_12[0][0]     
__________________________________________________________________________________________________
up_sampling2d_9 (UpSampling2D)  (None, 32, 32, 512)  0           elu_12[0][0]                     
__________________________________________________________________________________________________
up_sampling2d_6 (UpSampling2D)  (None, 32, 32, 128)  0           max_pooling2d_3[0][0]            
__________________________________________________________________________________________________
concatenate_2 (Concatenate)     (None, 32, 32, 640)  0           up_sampling2d_9[0][0]            
                                                                 up_sampling2d_6[0][0]            
__________________________________________________________________________________________________
conv2d_13 (Conv2D)              (None, 32, 32, 128)  737408      concatenate_2[0][0]              
__________________________________________________________________________________________________
batch_normalization_13 (BatchNo (None, 32, 32, 128)  128         conv2d_13[0][0]                  
__________________________________________________________________________________________________
elu_13 (ELU)                    (None, 32, 32, 128)  0           batch_normalization_13[0][0]     
__________________________________________________________________________________________________
dropout_7 (Dropout)             (None, 32, 32, 128)  0           elu_13[0][0]                     
__________________________________________________________________________________________________
conv2d_14 (Conv2D)              (None, 32, 32, 128)  147584      dropout_7[0][0]                  
__________________________________________________________________________________________________
batch_normalization_14 (BatchNo (None, 32, 32, 128)  128         conv2d_14[0][0]                  
__________________________________________________________________________________________________
elu_14 (ELU)                    (None, 32, 32, 128)  0           batch_normalization_14[0][0]     
__________________________________________________________________________________________________
up_sampling2d_10 (UpSampling2D) (None, 64, 64, 128)  0           elu_14[0][0]                     
__________________________________________________________________________________________________
up_sampling2d_4 (UpSampling2D)  (None, 64, 64, 64)   0           max_pooling2d_2[0][0]            
__________________________________________________________________________________________________
concatenate_3 (Concatenate)     (None, 64, 64, 192)  0           up_sampling2d_10[0][0]           
                                                                 up_sampling2d_4[0][0]            
__________________________________________________________________________________________________
conv2d_15 (Conv2D)              (None, 64, 64, 64)   110656      concatenate_3[0][0]              
__________________________________________________________________________________________________
batch_normalization_15 (BatchNo (None, 64, 64, 64)   256         conv2d_15[0][0]                  
__________________________________________________________________________________________________
elu_15 (ELU)                    (None, 64, 64, 64)   0           batch_normalization_15[0][0]     
__________________________________________________________________________________________________
dropout_8 (Dropout)             (None, 64, 64, 64)   0           elu_15[0][0]                     
__________________________________________________________________________________________________
conv2d_16 (Conv2D)              (None, 64, 64, 64)   36928       dropout_8[0][0]                  
__________________________________________________________________________________________________
batch_normalization_16 (BatchNo (None, 64, 64, 64)   256         conv2d_16[0][0]                  
__________________________________________________________________________________________________
elu_16 (ELU)                    (None, 64, 64, 64)   0           batch_normalization_16[0][0]     
__________________________________________________________________________________________________
up_sampling2d_11 (UpSampling2D) (None, 128, 128, 64) 0           elu_16[0][0]                     
__________________________________________________________________________________________________
conv2d_18 (Conv2D)              (None, 128, 128, 32) 18464       up_sampling2d_11[0][0]           
__________________________________________________________________________________________________
batch_normalization_18 (BatchNo (None, 128, 128, 32) 512         conv2d_18[0][0]                  
__________________________________________________________________________________________________
elu_18 (ELU)                    (None, 128, 128, 32) 0           batch_normalization_18[0][0]     
__________________________________________________________________________________________________
conv2d_19 (Conv2D)              (None, 128, 128, 1)  33          elu_18[0][0]                     
==================================================================================================
Total params: 4,883,265
Trainable params: 4,880,561
Non-trainable params: 2,704
__________________________________________________________________________________________________
None
Train on 3641 samples, validate on 1900 samples
Train on 3641 samples, validate on 1900 samples
…
